…
2019-05-19 15:57:57.054258: I tensorflow/core/common_runtime/gpu/gpu_device.cc:1003] 0:   N 
2019-05-19 15:57:57.054366: I tensorflow/core/common_runtime/gpu/gpu_device.cc:1115] Created TensorFlow device (/job:localhost/replica:0/task:0/device:GPU:0 with 1698 MB memory) -> physical GPU (device: 0, name: GeForce GTX 780, pci bus id: 0000:01:00.0, compute capability: 3.5)
_________________________________________________________________
Layer (type)                 Output Shape              Param #   
=================================================================
conv2d_1 (Conv2D)            (None, 32, 32, 32)        896       
_________________________________________________________________
activation_1 (Activation)    (None, 32, 32, 32)        0         
_________________________________________________________________
batch_normalization_1 (Batch (None, 32, 32, 32)        128       
_________________________________________________________________
max_pooling2d_1 (MaxPooling2 (None, 16, 16, 32)        0         
_________________________________________________________________
conv2d_2 (Conv2D)            (None, 16, 16, 32)        9248      
_________________________________________________________________
activation_2 (Activation)    (None, 16, 16, 32)        0         
_________________________________________________________________
batch_normalization_2 (Batch (None, 16, 16, 32)        128       
_________________________________________________________________
max_pooling2d_2 (MaxPooling2 (None, 8, 8, 32)          0         
_________________________________________________________________
conv2d_3 (Conv2D)            (None, 8, 8, 64)          18496     
_________________________________________________________________
activation_3 (Activation)    (None, 8, 8, 64)          0         
_________________________________________________________________
batch_normalization_3 (Batch (None, 8, 8, 64)          256       
_________________________________________________________________
conv2d_4 (Conv2D)            (None, 8, 8, 64)          36928     
_________________________________________________________________
activation_4 (Activation)    (None, 8, 8, 64)          0         
_________________________________________________________________
batch_normalization_4 (Batch (None, 8, 8, 64)          256       
_________________________________________________________________
conv2d_5 (Conv2D)            (None, 8, 8, 128)         73856     
_________________________________________________________________
activation_5 (Activation)    (None, 8, 8, 128)         0         
_________________________________________________________________
batch_normalization_5 (Batch (None, 8, 8, 128)         512       
_________________________________________________________________
max_pooling2d_3 (MaxPooling2 (None, 4, 4, 128)         0         
_________________________________________________________________
flatten_1 (Flatten)          (None, 2048)              0         
_________________________________________________________________
dense_1 (Dense)              (None, 2048)              4196352   
_________________________________________________________________
activation_6 (Activation)    (None, 2048)              0         
_________________________________________________________________
batch_normalization_6 (Batch (None, 2048)              8192      
_________________________________________________________________
dense_2 (Dense)              (None, 2048)              4196352   
_________________________________________________________________
activation_7 (Activation)    (None, 2048)              0         
_________________________________________________________________
batch_normalization_7 (Batch (None, 2048)              8192      
_________________________________________________________________
dense_3 (Dense)              (None, 1000)              2049000   
_________________________________________________________________
activation_8 (Activation)    (None, 1000)              0         
_________________________________________________________________
batch_normalization_8 (Batch (None, 1000)              4000      
_________________________________________________________________
dense_4 (Dense)              (None, 10)                10010     
_________________________________________________________________
activation_9 (Activation)    (None, 10)                0         
=================================================================
Total params: 10,612,802
Trainable params: 10,601,970
Non-trainable params: 10,832
_________________________________________________________________
WARNING:tensorflow:From /usr/lib/python3.7/site-packages/tensorflow/python/ops/math_ops.py:3066: to_int32 (from tensorflow.python.ops.math_ops) is deprecated and will be removed in a future version.
…
